models/lm_instructir-7d.pt (torch, 403275 bytes, 4 tensors)

fc1.weight f4 [256, 384]
0.052631624 -0.17563167 -0.15541293 -0.08896675 0.17769039 0.14483517 0.08929977 -0.25237215
-0.075070545 -0.028621536 0.034927037 -0.08014482 0.016773276 0.06588492 -0.10098201 -0.101637915
-0.07546628 -0.13669284 -0.1329129 -0.41690692 -0.14918429 -0.14114404 -0.28083476 -0.048459597
0.17480734 -0.02785145 0.15888713 0.12543523 -0.06630512 -0.035059568 0.014654733 -0.05904383
-0.055670403 -0.00275138 0.045033038 -0.0017604396 0.088331506 -0.102175675 -0.12544054 -0.035635926
0.1747486 -0.13008495 0.06730263 0.024072545 -0.06805355 -0.01888757 0.04918273 -0.11707836
-0.009434317 -0.039570894 -0.036534037 0.005499713 -0.114012375 0.05373561 0.00592477 -0.035741862
0.034109253 0.1254035 0.26362318 0.103101276 -0.040753707 0.07982393 0.09731238 -0.012213903
-0.013027492 -0.09332794 0.1479163 0.05822573 -0.12628758 -0.062448125 -0.11186003 0.092960164
-0.32296282 0.048575427 0.2022784 0.009762398 -0.006043078 -0.11748659 -0.0025364973 0.011346658
0.162502 0.08200704 -0.31006342 -0.019036455 -0.021508055 -0.15137804 -0.104694925 0.047749117
0.060771488 0.04229039 -0.10057711 0.19592552 0.034218863 -0.049286436 0.053370018 -0.0385906
-0.029125292 0.13579899 -0.16522402 -0.018793574 -0.053811707 0.19698635 -0.029071802 -0.0128974
0.005466869 0.3349938 0.029807618 -0.07267001 0.10664946 0.09029727 0.054773584 0.13609424
0.12538855 -0.15594646 0.16941243 -0.015277056 -0.0020999587 -0.011678792 0.12987454 0.05590999
0.18926139 -0.20903671 0.02339121 0.022336973 0.26549357 0.1695895 -0.055230886 0.04251283
0.065586515 -0.059255388 -0.022752663 -0.040461004 -0.10852538 0.20047371 0.24089958 0.16934414
-0.21453875 0.12569955 -0.19212341 0.18722802 -0.13266306 -0.0637034 -0.018868042 -0.086882874
0.043941025 0.0028070847 -0.1580578 -0.0965904 0.04694675 -0.10623454 0.061405107 -0.019497776
-0.06915135 -0.14215423 -0.07626673 -0.12373018 0.008558209 0.1293696 -0.015425647 0.009119257
-0.015591869 -0.008321045 0.30425555 0.027955513 0.05132261 -0.05479849 -0.07151024 0.007279831
-0.02584082 -0.16924006 0.103090316 0.1450252 0.13280275 0.24789882 -0.09757178 -0.0014252174
0.07025916 -0.1604453 -0.101844326 -0.009501391 0.05213776 0.16005486 -0.40047643 0.07286214
0.1629791 -0.04360573 -0.19640747 0.042995326 0.031320825 0.05209422 0.06258437 -0.09126323
0.20818332 0.32218444 -0.09369792 0.124132216 -0.13121313 -0.09308509 0.33533776 -0.17325555
-0.11473168 -0.008087046 0.40619737 -0.031839408 0.06120708 -0.2195965 -0.06474699 -0.019937519
-0.015189012 0.042890172 0.11411721 0.20774361 0.037215106 0.050672438 -0.057175156 0.183288
0.10223 -0.09560954 0.059512444 0.1058316 0.032806307 -0.03875082 -0.10921196 -0.016008727
-0.0049282922 -0.106230535 0.06602687 -0.21283723 -0.011572376 -0.17114778 0.024707817 -0.126247
-0.06434778 -0.11930222 -0.12256504 0.15121563 -0.05755581 -0.21377777 0.2164503 -0.3192375
-0.18193015 -0.03213488 -0.016451254 -0.12058618 -0.04019359 -0.11188747 0.023685822 0.030722957
0.14472497 0.03620739 -0.0044588754 0.07092406 -0.100015 0.05784546 -0.16650937 0.16936572
00000000: 4294 573d cad8 33be 9124 1fbe 3334 b6bd
00000010: 78f4 353e ac4f 143e cce2 b63d ec36 81be
00000020: 96be 99bd b677 eabc a70f 0f3d f822 a4bd
00000030: 1c68 893c acee 863d a8cf cebd 8a27 d0bd
00000040: 118e 9abd 35f9 0bbe 521a 08be d374 d5be
00000050: c4c3 18be 1088 10be 93c9 8fbe 927d 46bd
00000060: b200 333e b928 e4bc 4fb3 223e 1872 003e
00000070: fbca 87bd 9f9a 0fbd 681a 703c f1d7 71bd
00000080: a606 64bd 7f50 34bb 9074 383d 8dbe e6ba
00000090: 26e7 b43d 7b41 d1bd 7c73 00be faf6 11bd
000000a0: 4cf1 323e fd34 05be f6d5 893d c933 c53c
000000b0: a95f 8bbd 1bba 9abc d573 493d c7c6 efbd
000000c0: 6592 1abc 1715 22bd b7a4 15bd f036 b43b
000000d0: 527f e9bd df19 5c3d 9324 c23b 0f66 12bd
000000e0: 25b6 0b3d c669 003e 9ef9 863e c326 d33d
000000f0: 5ced 26bd bb7a a33d b74b c73d d21c 48bc
00000100: 4371 55bc b822 bfbd 5f77 173e 1a7e 6e3d
00000110: 8851 01be 9bc9 7fbd df16 e5bd e661 be3d
00000120: 625b a5be 07f7 463d 1222 4f3e 77f2 1f3c
00000130: 0305 c6bb cf9c f0bd 5d3b 26bb 55e7 393c
00000140: ed66 263e 4ff3 a73d a2c0 9ebe 57f2 9bbc
00000150: a931 b0bc d802 1bbe 4b6a d6bd 9494 433d
00000160: 86eb 783d b038 2d3d 5ffb cdbd b3a0 483e
00000170: 1429 0c3d 93e0 49bd 859a 5a3d 2d11 1ebd
00000180: 2a98 eebc e40e 0b3e 7c30 29be fbf4 99bc
00000190: aa69 5cbd cab6 493e fd27 eebc 9e4f 53bc
000001a0: 6c23 b33b 4f84 ab3e 1b2f f43c 04d4 94bd
000001b0: 086b da3d c6ed b83d 445a 603d 4a5c 0b3e
000001c0: db65 003e 6eb0 1fbe 747a 2d3e 9e4c 7abc
000001d0: 769f 09bb 6758 3fbc d5fd 043e e001 653d
000001e0: bdcd 413e b80d 56be ec9e bf3c 07fc b63c
000001f0: c6ee 873e dfa8 2d3e c839 62bd ef21 2e3d
00000200: 3952 863d c7b5 72bd cb63 babc 70ba 25bd
00000210: 8e42 debd fb48 4d3e 61ae 763e 8d68 2d3e
00000220: 0cb0 5bbe 62b7 003e 00bc 44be b4b8 3f3e
00000230: d3d8 07be ee76 82bd 2791 9abc a6ef b1bd
00000240: 81fb 333d 11f7 373b e7d9 21be 30d1 c5bd
00000250: 3c4b 403d 7f91 d9bd ec83 7b3d cdb9 9fbc
00000260: 399f 8dbd e190 11be bb31 9cbd 4066 fdbd
00000270: bb37 0c3c 7779 043e dabb 7cbc f068 153c
00000280: 0a75 7fbc fe54 08bc 62c7 9b3e f602 e53c
00000290: a837 523d 6274 60bd f673 92bd a68b ee3b
000002a0: 21b0 d3bc 444d 2dbe 0421 d33d 7c81 143e
000002b0: 72fd 073e 30d9 7d3e b7d3 c7bd 5cce baba
000002c0: 09e4 8f3d c64b 24be c293 d0bd b9ab 1bbc
000002d0: 678e 553d 6ce5 233e 3f0b cdbe bf38 953d
000002e0: fee3 263e ec9b 32bd 0a1f 49be de1b 303d
000002f0: 444a 003d c060 553d 3c2c 803d 37e8 babd
00000300: 022e 553e 5cf5 a43e b2e4 bfbd 0839 fe3d
00000310: bc5c 06be 65a3 bebd 64b1 ab3e e769 31be
00000320: 71f8 eabd 887f 04bc 1af9 cf3e 0a6a 02bd
00000330: 46b4 7a3d e8dd 60be 129a 84bd 0254 a3bc
00000340: 55db 78bc 9bad 2f3d 49b6 e93d beba 543e
00000350: de6e 183d e78d 4f3d 7f30 6abd d9af 3b3e
00000360: f65d d13d efce c3bd 52c3 733d 3dbe d83d
00000370: e85f 063d 2eb9 1ebd 85aa dfbd bc24 83bc
00000380: 837d a1bb 658f d9bd 1839 873d 01f2 59be
00000390: 109a 3dbc 5d41 2fbe 0c68 ca3c e546 01be
000003a0: c5c8 83bd b954 f4bd 6103 fbbd 45d8 1a3e
000003b0: a4bf 6bbd 8fe8 5abe 26a5 5d3e 1973 a3be
000003c0: e64b 3abe dd9f 03bd c8c4 86bc e3f5 f6bd
000003d0: 09a2 24bd 4225 e5bd c508 c23c b6ae fb3c
000003e0: c832 143e 334e 143d c21b 92bb a240 913d
000003f0: aad4 ccbd 5cef 6c3d 6f81 2abe 356e 2d3e

fc1.bias f4 [256]
0.033310693 -0.027270587 0.053570833 0.048989125 0.016393585 0.059400618 -0.057991818 -0.088104784
0.030673897 -0.008627218 -0.022012006 0.009800439 0.06676842 0.07031578 0.0011091996 -0.031470492
0.07950538 0.030751508 0.04271003 -0.036654238 0.055205647 -0.02823491 0.038951162 0.0061011915
-0.008537239 -0.015722653 -0.035648122 0.073052585 -0.12241242 0.0085663935 0.014033569 -0.0066715647
-0.10497577 0.04808254 -0.03191173 0.009536262 0.062323343 -0.11037349 0.025189983 -0.010948435
7.199644e-05 0.017305778 0.02955668 0.041833486 -0.031069066 -0.01121336 0.085839525 0.043244507
-0.016633132 0.019877102 -0.018667065 -0.0116112325 0.014788691 0.034417752 -0.009407693 0.029685521
0.01788977 -0.0033476504 -0.060623195 0.007187196 -0.022135079 -0.021149978 0.00481947 0.005250307
0.030196482 -0.092063114 -0.012129467 0.08890402 0.025848413 0.0057843914 0.012216659 -0.008379846
0.01987027 -0.012153206 0.041323587 -0.0056497697 -0.026997052 0.035387274 -0.0082449205 0.040654894
-0.009374998 0.030454686 0.01763419 -0.017857213 0.058501452 0.021299755 0.036098473 -0.023783669
-0.04374254 -0.08072413 -0.030226577 0.0047655753 0.12442117 -0.01018466 0.053852595 0.025309974
0.025124613 -0.012178804 0.055393826 -0.061056886 -0.06527702 -0.027579263 -0.028420094 0.009307824
-0.016361171 -0.07864762 0.058456864 -0.035738986 0.0001466448 0.06219892 0.019922948 0.022980874
0.01911484 0.04729713 -0.06282775 0.07964904 0.017335212 -0.015748212 0.08237318 -0.05178337
0.085269995 0.02964047 0.073782034 -0.009969035 0.017533334 0.031830963 -0.024114901 -0.067260064
0.05038169 0.009355008 -0.088020995 -0.010404349 0.050077643 0.053650837 -0.013656006 0.079626866
-0.0029952899 -0.036365077 0.067738324 -0.03570176 0.084609315 -0.012384576 0.086421534 0.10935927
-0.0309405 -0.048249826 0.00327737 -0.05568333 -0.01754225 -0.00025601455 0.030702522 -0.058781996
0.042488772 0.03744941 0.005116791 0.052285444 0.06443937 -0.017135331 0.006927052 -0.07974401
0.016314762 0.060564358 -0.08743588 -0.040240917 -0.070521474 -0.047938954 0.036351155 -0.031546302
0.0025784492 0.042463526 0.035429996 0.020381557 -0.014545621 -0.015266942 -0.032065038 -0.042792413
-0.090963945 -0.02907373 -0.032415725 -0.07270214 -0.019980585 -0.024902154 0.014449363 -0.024462536
0.056841254 0.021981971 -0.020069279 0.0013636152 0.082108915 0.011933292 -0.084777966 -0.05009503
0.056842864 -0.0044991835 -0.016112117 0.0013926347 -0.02485611 -0.0053832214 0.11936753 0.010913255
-0.10699879 -0.025744898 -0.03242361 -0.05519572 0.034018293 0.018876165 -0.011573499 -0.12492614
0.007709374 -0.0016056764 0.053846262 0.042952724 -0.009751068 -0.010799499 0.0053390013 -0.083210155
0.036090426 0.00022191083 0.0023086576 0.058565516 -0.004187516 0.0007593294 -0.0034868116 0.03780275
0.054424357 0.02271157 0.018261204 -0.07430354 -0.06600498 -0.01401304 0.030948076 0.029269619
-0.12453791 0.0245645 -0.020486673 0.057472695 0.038157236 0.044556923 0.01643297 -0.036059454
-0.03758252 -0.06318795 -0.03903356 -0.013159323 -0.022440031 0.0028868103 0.037570667 0.085622914
-0.061683904 0.024473106 -0.031990148 -0.050797384 -0.035315976 0.030006472 -0.0017468826 0.014331632
00000000: cb70 083d 9166 dfbc 176d 5b3d d2a8 483d
00000010: d74b 863c 104e 733d d488 6dbd 4870 b4bd
00000020: d347 fb3c 2d59 0dbc 8652 b4bc 0592 203c
00000030: e2bd 883d b801 903d 9062 913a 34e7 00bd
00000040: b7d3 a23d 96ea fb3c b6f0 2e3d c122 16bd
00000050: 511f 623d e64c e7bc 418b 1f3d 81ec c73b
00000060: c7df 0bbc cbcc 80bc c403 12bd 989c 953d
00000070: 5db3 fabd 0f5a 0c3c 0eed 653c 249d dabb
00000080: 89fd d6bd 33f2 443d e0b5 02bd fb3d 1c3c
00000090: c346 7f3d 7f0b e2bd 395b ce3c 1161 33bc
000000a0: cbfc 9638 d9c4 8d3c da20 f23c 9759 2b3d
000000b0: 8e84 febc 3eb8 37bc a2cc af3d 2721 313d
000000c0: 3542 88bc 4ed5 a23c aceb 98bc 0a3d 3ebc
000000d0: 444c 723c a1f9 0c3d b922 1abc 0d2f f33c
000000e0: 918d 923c 4164 5bbb 0750 78bd 9282 eb3b
000000f0: a054 b5bc b842 adbc a5ec 9d3b c40a ac3b
00000100: 9d5e f73c 968b bcbd acba 46bc 5013 b63d
00000110: 0dc0 d33c fe8a bd3b 6228 483c 9f4b 09bc
00000120: fac6 a23c 3e1e 47bc ec42 293d b421 b9bb
00000130: ec28 ddbc 3ff2 103d b415 07bc bf85 263d
00000140: 9799 19bc 1b7c f93c 9475 903c 4a49 92bc
00000150: 389f 6f3d d37c ae3c fedb 133d f8d5 c2bc
00000160: 612b 33bd b152 a5bd ba9d f7bc 8b28 9c3b
00000170: 87d0 fe3d 8fdd 26bc 8a94 5c3d dd56 cf3c
00000180: 22d2 cd3c 9b89 47bc a3e4 623d c916 7abd
00000190: f5af 85bd e8ed e1bc 42d1 e8bc d87f 183c
000001a0: dd07 86bc 0112 a1bd 7770 6f3d 0b63 12bd
000001b0: aac4 1939 4bc4 7e3d 7335 a33c 6342 bc3c
000001c0: ba96 9c3c a3ba 413d d6ab 80bd 091f a33d
000001d0: 9302 8e3c 6502 81bc 45b3 a83d cd1a 54bd
000001e0: 09a2 ae3d 92d0 f23c 091b 973d 2a55 23bc
000001f0: 11a2 8f3c 2f61 023d 9d8c c5bc a5bf 89bd
00000200: 085d 4e3d bf45 193c 5a44 b4bd 0177 2abc
00000210: 371e 4d3d fbc0 5b3d 71bd 5fbc 6913 a33d
00000220: a04c 44bb 8cf3 14bd 64ba 8a3d 023c 12bd
00000230: a647 ad3d ade8 4abc c6fd b03d c1f7 df3d
00000240: ee76 fdbc 9ca1 45bd 25c9 563b 3414 64bd
00000250: c4b4 8fbc b139 86b9 db83 fb3c 64c5 70bd
00000260: b508 2e3d 8d64 193d c1aa a73b 4329 563d
00000270: caf8 833d 655f 8cbc 53fc e23b d450 a3bd
00000280: 89a6 853c 5512 783d 9511 b3bd a9d3 24bd
00000290: 906d 90bd a35b 44bd f3e4 143d b236 01bd
000002a0: 33fb 283b 3cee 2d3d 0b1f 113d 39f7 a63c
000002b0: c250 6ebc 3222 7abc a156 03bd 1947 2fbd
000002c0: 4e4b babd 082c eebc 5ac6 04bd dce4 94bd
000002d0: 53ae a3bc 9aff cbbc 05bd 6c3c a865 c8bc
000002e0: 60d2 683d 8913 b43c 5468 a4bc 55bb b23a
000002f0: b828 a83d db83 433c 12a0 adbd 7230 4dbd
00000300: 10d4 683d e36d 93bb 8ffd 83bc 1189 b63a
00000310: 0a9f cbbc bc65 b0bb f776 f43d 82cd 323c
00000320: 2e22 dbbd f7e6 d2bc 9fce 04bd e814 62bd
00000330: c456 0b3d 30a2 9a3c c69e 3dbc 47d9 ffbd
00000340: eb9e fc3b 8f75 d2ba e68d 5c3d 32ef 2f3d
00000350: f2c2 1fbc 62f0 30bc caf2 ae3b 166a aabd
00000360: 8ed3 133d bcb0 6839 d94c 173b 65e2 6f3d
00000370: 6e37 89bb bc0d 473a fe82 64bb 0ed7 1a3d
00000380: 13ec 5e3d 9d0d ba3c 8598 953c 742c 98bd
00000390: 9e2d 87bd f396 65bc d286 fd3c d7c6 ef3c
000003a0: bb0d ffbd 7e3b c93c abd3 a7bc 7d68 6b3d
000003b0: c34a 1c3d 5281 363d 709e 863c 14b3 13bd
000003c0: 21f0 19bd af68 81bd a7e1 1fbd 339a 57bc
000003d0: 28d4 b7bc a430 3d3b b3e3 193d 115b af3d
000003e0: 43a8 7cbd d37b c83c 1a08 03bd eb10 50bd
000003f0: 7ca7 10bd 22d0 f53c a7f7 e4ba 39cf 6a3c

fc2.weight f4 [7, 256]
3.2668085 5.067409 -2.0991373 1.3298074 -1.6299796 0.5153181 -1.2432662 -1.5387654
3.9211419 -3.3372478 1.0205106 -2.0971084 -4.1207595 0.88067895 1.9933429 2.5116863
-5.1165867 0.594514 -2.7746012 -2.238763 -4.724487 -1.0181454 1.6894877 -2.5974658
-0.5388766 1.2159444 3.045933 1.6321177 1.4974374 4.3415413 -2.183925 4.091622
-1.6359751 1.2418221 5.182461 -5.6307783 2.827887 3.806533 2.2675884 -1.8068004
0.7640891 1.2017044 2.3507955 -5.0839434 -2.1061513 2.2004488 -2.8468888 -2.486567
-4.5126443 4.0243125 -2.1832354 2.1042726 2.56942 -1.9310998 -2.5968256 -1.4562111
-2.416018 4.950605 3.2665865 2.6189811 3.894394 -1.7691128 -0.8204165 4.612678
-4.5249667 5.4183993 -2.1672525 -2.9321394 2.9501019 1.058778 -0.77216023 4.609111
-3.6709704 -1.9324574 2.1555243 1.4260745 5.3228097 -3.6572292 -2.4690356 2.3747466
2.8050075 -1.5987464 2.2656286 3.0106986 -5.341484 -2.254931 -0.38105625 2.874051
1.9318863 -1.6307212 -1.6167538 -4.052115 -2.9737282 2.4238632 -2.0690227 2.967725
-2.0154736 -5.067851 2.5699732 2.6490874 -3.7327793 4.8496842 -1.677494 3.8929238
2.584416 4.334988 -0.26353467 1.8982369 3.4929066 1.0104954 2.076738 0.7043944
1.3093047 0.90906954 2.5149448 -2.5928655 2.015511 -2.8147452 0.38196522 -1.5968132
-0.5980655 -5.1273265 2.6964822 -1.1509235 0.23138748 0.4081508 2.2770948 -1.8078878
2.0195818 1.4846367 2.4241958 -1.3723038 -3.72004 -4.1591706 2.4708688 -3.0171213
3.6201072 3.963899 -3.122105 1.7988735 -2.3587787 4.4084845 1.8343209 -4.5770774
-1.1139076 3.1442738 2.5799546 -2.5675163 -0.9789301 3.346872 -3.1130722 -2.9462311
-5.2914186 2.213599 0.87710625 -4.4046526 -5.212735 -1.7874311 -3.7089417 5.3576775
0.7511562 -2.5417678 -0.94512016 5.13745 -2.211403 0.29024702 1.131025 2.3413506
4.47418 -2.037543 -3.32555 -1.5490575 -5.022333 -1.6714923 2.133408 6.0684166
-2.0014207 -1.0541822 -1.9966037 2.4203167 -1.5894992 2.7268338 -1.3280692 1.6444832
-3.8751595 -3.931344 -1.7388695 0.8566839 1.0363226 -4.8290944 -1.9854711 1.9638286
-3.269219 -4.6991496 3.7199292 1.9112283 1.9802153 4.9527507 0.69258076 -0.8137532
3.37236 3.5777953 3.180571 -3.5920267 -1.7440805 2.309383 -3.890486 -0.17543708
-2.699582 -2.116569 -4.919454 0.7607217 0.7028845 4.0868077 -5.8558173 -0.75805926
-2.3281806 -1.7413707 2.8484352 -3.0477054 1.7253813 3.7462401 1.8196261 0.91434985
-1.7633741 0.30959746 -5.0673566 2.3973947 -2.311134 1.4138511 -0.72388774 0.34662908
3.2490828 -0.66332316 2.8657117 0.106476985 -2.7942617 3.3420222 -4.92525 -3.4261963
3.0838213 -1.516748 2.7610793 -1.2514869 3.6309543 3.3173368 -4.331446 -5.5268445
4.4444437 0.8845284 4.0097976 2.4728308 2.6234434 0.70913273 4.304938 2.3992355
00000000: 6413 5140 3728 a240 4458 06c0 2137 aa3f
00000010: 2ca3 d0bf e3eb 033f 5923 9fbf 44f6 c4bf
00000020: fdf3 7a40 7895 55c0 17a0 823f 0637 06c0
00000030: 43dd 83c0 2d74 613f dc25 ff3f 78bf 2040
00000040: 14bb a3c0 1232 183f 1193 31c0 e547 0fc0
00000050: ff2e 97c0 9752 82bf 2241 d83f e13c 26c0
00000060: d1f3 09bf 11a4 9b3f 91f0 4240 3ce9 d03f
00000070: 07ac bf3f e8ed 8a40 6dc5 0bc0 91ee 8240
00000080: a267 d1bf 07f4 9e3f b8d6 a540 562f b4c0
00000090: 1afc 3440 3d9e 7340 2b20 1140 3c45 e7bf
000000a0: 589b 433f 73d1 993f 6f73 1640 aaaf a2c0
000000b0: 2fcb 06c0 27d4 0c40 6d33 36c0 ea23 1fc0
000000c0: 9567 90c0 2bc7 8040 21ba 0bc0 67ac 0640
000000d0: 6171 2440 472e f7bf 6432 26c0 2065 babf
000000e0: 0aa0 1ac0 5b6b 9e40 c10f 5140 639d 2740
000000f0: c03d 7940 4a72 e2bf d106 52bf 0f9b 9340
00000100: 87cc 90c0 8763 ad40 44b4 0ac0 2ca8 3bc0
00000110: 78ce 3c40 0a86 873f 4bac 45bf d67d 9340
00000120: 2ef1 6ac0 c45a f7bf 1cf4 0940 9c89 b63f
00000130: 7554 aa40 0b10 6ac0 ae04 1ec0 d9fb 1740
00000140: 3e85 3340 b9a3 ccbf 0f00 1140 49af 4040
00000150: 70ed aac0 ca50 10c0 ce19 c3be 74f0 3740
00000160: 0d48 f73f 79bb d0bf caf1 cebf edaa 81c0
00000170: 9051 3ec0 9320 1b40 de6a 04c0 35ef 3d40
00000180: 85fd 00c0 d62b a2c0 717a 2440 a68a 2940
00000190: dbe5 6ec0 9d30 9b40 20b8 d6bf aa25 7940
000001a0: 1267 2540 39b8 8a40 04ee 86be 6df9 f23f
000001b0: c88b 5f40 ea57 813f 47e9 0440 3153 343f
000001c0: 4c97 a73f c8b8 683f dbf4 2040 82f1 25c0
000001d0: 22fe 0040 c924 34c0 f290 c33e 6064 ccbf
000001e0: d21a 19bf 0f13 a4c0 2a93 2c40 7651 93bf
000001f0: d7f0 6c3e 24f9 d03e ecbb 1140 de68 e7bf
00000200: d440 0140 9308 be3f 0626 1b40 a7a7 afbf
00000210: 2315 6ec0 ed17 85c0 b722 1e40 8418 41c0
00000220: d6af 6740 85b0 7d40 91d0 47c0 7d41 e63f
00000230: 3bf6 16c0 4e12 8d40 07cb ea3f 6b77 92c0
00000240: 8694 8ebf c83b 4940 fa1d 2540 3052 24c0
00000250: 2a9b 7abf 2733 5640 933c 47c0 0d8f 3cc0
00000260: 4d53 a9c0 9bab 0d40 098a 603f eaf2 8cc0
00000270: bace a6c0 8bca e4bf 4d5f 6dc0 1872 ab40
00000280: c64b 403f 53ac 22c0 65f3 71bf fe65 a440
00000290: a087 0dc0 429b 943e 6dc5 903f b0d8 1540
000002a0: 7c2c 8f40 1b67 02c0 d0d5 54c0 8447 c6bf
000002b0: f4b6 a0c0 76f3 d5bf c289 0840 7830 c240
000002c0: 4717 00c0 71ef 86bf b690 ffbf 78e6 1a40
000002d0: b674 cbbf 7284 2e40 2cfe a9bf 6d7e d23f
000002e0: 9d02 78c0 249b 7bc0 4793 debf a34f 5b3f
000002f0: 38a6 843f f187 9ac0 eb23 febf bc5e fb3f
00000300: e23a 51c0 6f5f 96c0 5213 6e40 21a3 f43f
00000310: b277 fd3f ef7c 9e40 f94c 313f 2152 50bf
00000320: bfd4 5740 99fa 6440 7a8e 4b40 c4e3 65c0
00000330: 083e dfbf eecc 1340 b9fd 78c0 c7a5 33be
00000340: f4c5 2cc0 de75 07c0 2b6c 9dc0 a8be 423f
00000350: 3df0 333f 21c7 8240 db62 bbc0 2c10 42bf
00000360: e900 15c0 3ce5 debf c34c 3640 9b0d 43c0
00000370: 4bd9 dc3f 66c2 6f40 82e9 e83f d512 6a3f
00000380: 3eb6 e1bf 8f83 9e3e c927 a2c0 ea6e 1940
00000390: 9fe9 13c0 13f9 b43f b550 39bf 5e79 b13e
000003a0: f9f0 4f40 8ccf 29bf d267 3740 9b10 da3d
000003b0: 2fd5 32c0 b1e3 5540 a69b 9dc0 cd46 5bc0
000003c0: 545d 4540 cc24 c2bf 86b5 3040 b930 a0bf
000003d0: 8e61 6840 3f4f 5440 359b 8ac0 e9db b0c0
000003e0: e238 8e40 7470 623f 4350 8040 dc42 1e40
000003f0: 7fe6 2740 b989 353f 0dc2 8940 138d 1940

fc2.bias f4 [7]
-0.4376892 -0.3870681 -0.9000721 -0.5594921 -0.02928222 0.11230817 -3.7837527
00000000: cc18 e0be ca2d c6be 206b 66bf e03a 0fbf
00000010: 44e1 efbc d301 e63d 0129 72c0
